Using TensorFlow backend.
____________________________________________________________________________________________________
Layer (type)                     Output Shape          Param #     Connected to
====================================================================================================
input_1 (InputLayer)             (None, 120, 160, 3)   0
____________________________________________________________________________________________________
block1_conv1 (Convolution2D)     (None, 120, 160, 64)  1792        input_1[0][0]
____________________________________________________________________________________________________
block1_conv2 (Convolution2D)     (None, 120, 160, 64)  36928       block1_conv1[0][0]
____________________________________________________________________________________________________
block1_pool (MaxPooling2D)       (None, 60, 80, 64)    0           block1_conv2[0][0]
____________________________________________________________________________________________________
block2_conv1 (Convolution2D)     (None, 60, 80, 128)   73856       block1_pool[0][0]
____________________________________________________________________________________________________
block2_conv2 (Convolution2D)     (None, 60, 80, 128)   147584      block2_conv1[0][0]
____________________________________________________________________________________________________
block2_pool (MaxPooling2D)       (None, 30, 40, 128)   0           block2_conv2[0][0]
____________________________________________________________________________________________________
block3_conv1 (Convolution2D)     (None, 30, 40, 256)   295168      block2_pool[0][0]
____________________________________________________________________________________________________
block3_conv2 (Convolution2D)     (None, 30, 40, 256)   590080      block3_conv1[0][0]
____________________________________________________________________________________________________
block3_conv3 (Convolution2D)     (None, 30, 40, 256)   590080      block3_conv2[0][0]
____________________________________________________________________________________________________
block3_pool (MaxPooling2D)       (None, 15, 20, 256)   0           block3_conv3[0][0]
____________________________________________________________________________________________________
block4_conv1 (Convolution2D)     (None, 15, 20, 512)   1180160     block3_pool[0][0]
____________________________________________________________________________________________________
block4_conv2 (Convolution2D)     (None, 15, 20, 512)   2359808     block4_conv1[0][0]
____________________________________________________________________________________________________
block4_conv3 (Convolution2D)     (None, 15, 20, 512)   2359808     block4_conv2[0][0]
____________________________________________________________________________________________________
block4_pool (MaxPooling2D)       (None, 7, 10, 512)    0           block4_conv3[0][0]
____________________________________________________________________________________________________
block5_conv1 (Convolution2D)     (None, 7, 10, 512)    2359808     block4_pool[0][0]
____________________________________________________________________________________________________
block5_conv2 (Convolution2D)     (None, 7, 10, 512)    2359808     block5_conv1[0][0]
____________________________________________________________________________________________________
block5_conv3 (Convolution2D)     (None, 7, 10, 512)    2359808     block5_conv2[0][0]
____________________________________________________________________________________________________
block5_pool (MaxPooling2D)       (None, 3, 5, 512)     0           block5_conv3[0][0]
____________________________________________________________________________________________________
flatten (Flatten)                (None, 7680)          0           block5_pool[0][0]
____________________________________________________________________________________________________
fc1 (Dense)                      (None, 2048)          15730688    flatten[0][0]
____________________________________________________________________________________________________
fc2 (Dense)                      (None, 256)           524544      fc1[0][0]
____________________________________________________________________________________________________
predictions (Dense)              (None, 6)             1542        fc2[0][0]
====================================================================================================
Total params: 30,971,462
Trainable params: 16,256,774
Non-trainable params: 14,714,688
____________________________________________________________________________________________________
None
[mpeg4 @ 000000e5050b1200] ac-tex damaged at 8 6
[mpeg4 @ 000000e5050b1200] Error at MB: 74
…
